…
tion=False, source_names=['2Dresnet50'], target_names=['2Dresnet50'], test_batch_size=8, test_on_epoch=0, train_batch_size=8, val_batch_size=8)
Using Cuda GPU
Creating Custom Data If Needed
The dataset with  8 frames exists
Initializing Dataloader
Proceeding with Model: 2Dresnet50
===============================================================================================
Layer (type:depth-idx)                        Output Shape              Param #
===============================================================================================
CustomModel                                   [8, 25]                   --
├─ResNet: 1-1                                 [64, 2048]                --
│    └─Conv2d: 2-1                            [64, 64, 112, 112]        9,408
│    └─BatchNorm2d: 2-2                       [64, 64, 112, 112]        (128)
│    └─ReLU: 2-3                              [64, 64, 112, 112]        --
│    └─MaxPool2d: 2-4                         [64, 64, 56, 56]          --
│    └─Sequential: 2-5                        [64, 256, 56, 56]         --
│    │    └─Bottleneck: 3-1                   [64, 256, 56, 56]         (75,008)
│    │    └─Bottleneck: 3-2                   [64, 256, 56, 56]         (70,400)
│    │    └─Bottleneck: 3-3                   [64, 256, 56, 56]         (70,400)
│    └─Sequential: 2-6                        [64, 512, 28, 28]         --
│    │    └─Bottleneck: 3-4                   [64, 512, 28, 28]         (379,392)
│    │    └─Bottleneck: 3-5                   [64, 512, 28, 28]         (280,064)
│    │    └─Bottleneck: 3-6                   [64, 512, 28, 28]         (280,064)
│    │    └─Bottleneck: 3-7                   [64, 512, 28, 28]         (280,064)
│    └─Sequential: 2-7                        [64, 1024, 14, 14]        --
│    │    └─Bottleneck: 3-8                   [64, 1024, 14, 14]        (1,512,448)
│    │    └─Bottleneck: 3-9                   [64, 1024, 14, 14]        (1,117,184)
│    │    └─Bottleneck: 3-10                  [64, 1024, 14, 14]        (1,117,184)
│    │    └─Bottleneck: 3-11                  [64, 1024, 14, 14]        (1,117,184)
│    │    └─Bottleneck: 3-12                  [64, 1024, 14, 14]        (1,117,184)
│    │    └─Bottleneck: 3-13                  [64, 1024, 14, 14]        (1,117,184)
│    └─Sequential: 2-8                        [64, 2048, 7, 7]          --
│    │    └─Bottleneck: 3-14                  [64, 2048, 7, 7]          (6,039,552)
│    │    └─Bottleneck: 3-15                  [64, 2048, 7, 7]          (4,462,592)
│    │    └─Bottleneck: 3-16                  [64, 2048, 7, 7]          (4,462,592)
│    └─AdaptiveAvgPool2d: 2-9                 [64, 2048, 1, 1]          --
│    └─Flatten: 2-10                          [64, 2048]                --
├─Sequential: 1-2                             [8, 25]                   --
│    └─PositionalEncoding: 2-11               [8, 9, 2048]              2,048
│    └─TransformerEncoderLayer: 2-12          [8, 9, 2048]              --
│    │    └─MultiheadAttention: 3-17          [8, 9, 2048]              16,785,408
│    │    └─Dropout: 3-18                     [8, 9, 2048]              --
│    │    └─LayerNorm: 3-19                   [8, 9, 2048]              4,096
│    │    └─Linear: 3-20                      [8, 9, 2048]              4,196,352
│    │    └─Dropout: 3-21                     [8, 9, 2048]              --
│    │    └─Linear: 3-22                      [8, 9, 2048]              4,196,352
│    │    └─Dropout: 3-23                     [8, 9, 2048]              --
│    │    └─LayerNorm: 3-24                   [8, 9, 2048]              4,096
│    └─Flatten: 2-13                          [8, 18432]                --
│    └─Linear: 2-14                           [8, 25]                   460,825
===============================================================================================
Total params: 49,157,209
Trainable params: 25,658,585
Non-trainable params: 23,498,624
Total mult-adds (G): 261.65
===============================================================================================
Input size (MB): 38.54
Forward/backward pass size (MB): 11385.44
Params size (MB): 129.48
Estimated Total Size (MB): 11553.45
…
