…
0001', skip_attention=False, source_names=['2Dresnet18'], target_names=['2Dresnet18'], test_batch_size=8, train_batch_size=8, val_batch_size=8)
Using Cuda GPU
Creating Custom Data If Needed
The dataset with 16 frames exists
Initializing Dataloader
Proceeding with Model: 2Dresnet18
===============================================================================================
Layer (type:depth-idx)                        Output Shape              Param #
===============================================================================================
CustomModel                                   [8, 25]                   --
├─ResNet: 1-1                                 [128, 512]                --
│    └─Conv2d: 2-1                            [128, 64, 112, 112]       9,408
│    └─BatchNorm2d: 2-2                       [128, 64, 112, 112]       (128)
│    └─ReLU: 2-3                              [128, 64, 112, 112]       --
│    └─MaxPool2d: 2-4                         [128, 64, 56, 56]         --
│    └─Sequential: 2-5                        [128, 64, 56, 56]         --
│    │    └─BasicBlock: 3-1                   [128, 64, 56, 56]         (73,984)
│    │    └─BasicBlock: 3-2                   [128, 64, 56, 56]         (73,984)
│    └─Sequential: 2-6                        [128, 128, 28, 28]        --
│    │    └─BasicBlock: 3-3                   [128, 128, 28, 28]        (230,144)
│    │    └─BasicBlock: 3-4                   [128, 128, 28, 28]        (295,424)
│    └─Sequential: 2-7                        [128, 256, 14, 14]        --
│    │    └─BasicBlock: 3-5                   [128, 256, 14, 14]        (919,040)
│    │    └─BasicBlock: 3-6                   [128, 256, 14, 14]        (1,180,672)
│    └─Sequential: 2-8                        [128, 512, 7, 7]          --
│    │    └─BasicBlock: 3-7                   [128, 512, 7, 7]          (3,673,088)
│    │    └─BasicBlock: 3-8                   [128, 512, 7, 7]          (4,720,640)
│    └─Sequential: 2-9                        [128, 512]                --
│    │    └─AdaptiveAvgPool2d: 3-9            [128, 512, 1, 1]          --
│    │    └─Flatten: 3-10                     [128, 512]                --
│    └─Identity: 2-10                         [128, 512]                --
├─Sequential: 1-2                             [8, 25]                   --
│    └─PositionalEncoding: 2-11               [8, 17, 512]              512
│    └─TransformerEncoderLayer: 2-12          [8, 17, 512]              --
│    │    └─MultiheadAttention: 3-11          [8, 17, 512]              1,050,624
│    │    └─Dropout: 3-12                     [8, 17, 512]              --
│    │    └─LayerNorm: 3-13                   [8, 17, 512]              1,024
│    │    └─Linear: 3-14                      [8, 17, 512]              262,656
│    │    └─Dropout: 3-15                     [8, 17, 512]              --
│    │    └─Linear: 3-16                      [8, 17, 512]              262,656
│    │    └─Dropout: 3-17                     [8, 17, 512]              --
│    │    └─LayerNorm: 3-18                   [8, 17, 512]              1,024
│    └─Flatten: 2-13                          [8, 8704]                 --
│    └─Linear: 2-14                           [8, 25]                   217,625
===============================================================================================
Total params: 12,972,633
Trainable params: 1,805,529
Non-trainable params: 11,167,104
Total mult-adds (G): 232.14
===============================================================================================
Input size (MB): 77.07
Forward/backward pass size (MB): 5088.87
Params size (MB): 47.69
Estimated Total Size (MB): 5213.63
…
