…
0001', skip_attention=False, source_names=['2Dresnet18'], target_names=['2Dresnet18'], test_batch_size=8, train_batch_size=8, val_batch_size=8)
Using Cuda GPU
Creating Custom Data If Needed
The dataset with  8 frames exists
Initializing Dataloader
Proceeding with Model: 2Dresnet18
===============================================================================================
Layer (type:depth-idx)                        Output Shape              Param #
===============================================================================================
CustomModel                                   [8, 25]                   --
├─ResNet: 1-1                                 [64, 512]                 --
│    └─Conv2d: 2-1                            [64, 64, 112, 112]        9,408
│    └─BatchNorm2d: 2-2                       [64, 64, 112, 112]        (128)
│    └─ReLU: 2-3                              [64, 64, 112, 112]        --
│    └─MaxPool2d: 2-4                         [64, 64, 56, 56]          --
│    └─Sequential: 2-5                        [64, 64, 56, 56]          --
│    │    └─BasicBlock: 3-1                   [64, 64, 56, 56]          (73,984)
│    │    └─BasicBlock: 3-2                   [64, 64, 56, 56]          (73,984)
│    └─Sequential: 2-6                        [64, 128, 28, 28]         --
│    │    └─BasicBlock: 3-3                   [64, 128, 28, 28]         (230,144)
│    │    └─BasicBlock: 3-4                   [64, 128, 28, 28]         (295,424)
│    └─Sequential: 2-7                        [64, 256, 14, 14]         --
│    │    └─BasicBlock: 3-5                   [64, 256, 14, 14]         (919,040)
│    │    └─BasicBlock: 3-6                   [64, 256, 14, 14]         (1,180,672)
│    └─Sequential: 2-8                        [64, 512, 7, 7]           --
│    │    └─BasicBlock: 3-7                   [64, 512, 7, 7]           (3,673,088)
│    │    └─BasicBlock: 3-8                   [64, 512, 7, 7]           (4,720,640)
│    └─Sequential: 2-9                        [64, 512]                 --
│    │    └─AdaptiveAvgPool2d: 3-9            [64, 512, 1, 1]           --
│    │    └─Flatten: 3-10                     [64, 512]                 --
│    └─Identity: 2-10                         [64, 512]                 --
├─Sequential: 1-2                             [8, 25]                   --
│    └─PositionalEncoding: 2-11               [8, 9, 512]               512
│    └─TransformerEncoderLayer: 2-12          [8, 9, 512]               --
│    │    └─MultiheadAttention: 3-11          [8, 9, 512]               1,050,624
│    │    └─Dropout: 3-12                     [8, 9, 512]               --
│    │    └─LayerNorm: 3-13                   [8, 9, 512]               1,024
│    │    └─Linear: 3-14                      [8, 9, 512]               262,656
│    │    └─Dropout: 3-15                     [8, 9, 512]               --
│    │    └─Linear: 3-16                      [8, 9, 512]               262,656
│    │    └─Dropout: 3-17                     [8, 9, 512]               --
│    │    └─LayerNorm: 3-18                   [8, 9, 512]               1,024
│    └─Flatten: 2-13                          [8, 4608]                 --
│    └─Linear: 2-14                           [8, 25]                   115,225
===============================================================================================
Total params: 12,870,233
Trainable params: 1,703,129
Non-trainable params: 11,167,104
Total mult-adds (G): 116.07
===============================================================================================
Input size (MB): 38.54
Forward/backward pass size (MB): 2544.50
Params size (MB): 47.28
Estimated Total Size (MB): 2630.31
…
