…
test_batch_size=20, train_batch_size=20, val_batch_size=20)
Using Cuda GPU
Creating Custom Data If Needed
The dataset with  8 frames exists
Initializing Dataloader
Proceeding with Model: timesformer400
===================================================================================================================
Layer (type:depth-idx)                                            Output Shape              Param #
===================================================================================================================
TimesformerForVideoClassification                                 [20, 25]                  --
├─TimesformerModel: 1-1                                           [20, 1569, 768]           --
│    └─TimesformerEmbeddings: 2-1                                 [20, 1569, 768]           158,208
│    │    └─TimesformerPatchEmbeddings: 3-1                       [160, 196, 768]           (590,592)
│    │    └─Dropout: 3-2                                          [160, 197, 768]           --
│    │    └─Dropout: 3-3                                          [3920, 8, 768]            --
│    └─TimesformerEncoder: 2-2                                    [20, 1569, 768]           --
│    │    └─ModuleList: 3-4                                       --                        (120,508,416)
│    └─LayerNorm: 2-3                                             [20, 1569, 768]           (1,536)
├─Linear: 1-2                                                     [20, 25]                  19,225
===================================================================================================================
Total params: 121,277,977
Trainable params: 19,225
Non-trainable params: 121,258,752
Total mult-adds (G): 135.53
===================================================================================================================
Input size (MB): 96.34
Forward/backward pass size (MB): 39759.18
…
